==========================================================================================
Layer (type:depth-idx)                   Output Shape              Param #
==========================================================================================
NetworkBuilder                           [256, 10]                 --
├─ModuleList: 1-1                        --                        --
│    └─CNN_block_VGG2: 2-1               [256, 64, 112, 112]       --
│    │    └─Conv2d: 3-1                  [256, 64, 224, 224]       1,792
│    │    └─Activation: 3-2              [256, 64, 224, 224]       --
│    │    └─Conv2d: 3-3                  [256, 64, 224, 224]       36,928
│    │    └─Activation: 3-4              [256, 64, 224, 224]       --
│    │    └─TrainingHook: 3-5            [256, 64, 224, 224]       --
│    │    └─MaxPool2d: 3-6               [256, 64, 112, 112]       --
│    └─CNN_block_VGG2: 2-2               [256, 128, 56, 56]        --
│    │    └─Conv2d: 3-7                  [256, 128, 112, 112]      73,856
│    │    └─Activation: 3-8              [256, 128, 112, 112]      --
│    │    └─Conv2d: 3-9                  [256, 128, 112, 112]      147,584
│    │    └─Activation: 3-10             [256, 128, 112, 112]      --
│    │    └─TrainingHook: 3-11           [256, 128, 112, 112]      --
│    │    └─MaxPool2d: 3-12              [256, 128, 56, 56]        --
│    └─CNN_block_VGG3: 2-3               [256, 256, 28, 28]        --
│    │    └─Conv2d: 3-13                 [256, 256, 56, 56]        295,168
│    │    └─Activation: 3-14             [256, 256, 56, 56]        --
│    │    └─Conv2d: 3-15                 [256, 256, 56, 56]        590,080
│    │    └─Activation: 3-16             [256, 256, 56, 56]        --
│    │    └─Conv2d: 3-17                 [256, 256, 56, 56]        590,080
│    │    └─Activation: 3-18             [256, 256, 56, 56]        --
│    │    └─TrainingHook: 3-19           [256, 256, 56, 56]        --
│    │    └─MaxPool2d: 3-20              [256, 256, 28, 28]        --
│    └─CNN_block_VGG3: 2-4               [256, 512, 14, 14]        --
│    │    └─Conv2d: 3-21                 [256, 512, 28, 28]        1,180,160
│    │    └─Activation: 3-22             [256, 512, 28, 28]        --
│    │    └─Conv2d: 3-23                 [256, 512, 28, 28]        2,359,808
│    │    └─Activation: 3-24             [256, 512, 28, 28]        --
│    │    └─Conv2d: 3-25                 [256, 512, 28, 28]        2,359,808
│    │    └─Activation: 3-26             [256, 512, 28, 28]        --
│    │    └─TrainingHook: 3-27           [256, 512, 28, 28]        --
│    │    └─MaxPool2d: 3-28              [256, 512, 14, 14]        --
│    └─CNN_block_VGG3: 2-5               [256, 512, 7, 7]          --
│    │    └─Conv2d: 3-29                 [256, 512, 14, 14]        2,359,808
│    │    └─Activation: 3-30             [256, 512, 14, 14]        --
│    │    └─Conv2d: 3-31                 [256, 512, 14, 14]        2,359,808
│    │    └─Activation: 3-32             [256, 512, 14, 14]        --
│    │    └─Conv2d: 3-33                 [256, 512, 14, 14]        2,359,808
│    │    └─Activation: 3-34             [256, 512, 14, 14]        --
│    │    └─TrainingHook: 3-35           [256, 512, 14, 14]        --
│    │    └─MaxPool2d: 3-36              [256, 512, 7, 7]          --
│    └─FC_block_VGG: 2-6                 [256, 4096]               --
│    │    └─Linear: 3-37                 [256, 4096]               102,764,544
│    │    └─Activation: 3-38             [256, 4096]               --
│    │    └─TrainingHook: 3-39           [256, 4096]               --
│    └─FC_block_VGG: 2-7                 [256, 4096]               --
│    │    └─Linear: 3-40                 [256, 4096]               16,781,312
│    │    └─Activation: 3-41             [256, 4096]               --
│    │    └─TrainingHook: 3-42           [256, 4096]               --
│    └─FC_block_VGG: 2-8                 [256, 10]                 --
│    │    └─Linear: 3-43                 [256, 10]                 40,970
│    │    └─Activation: 3-44             [256, 10]                 --
│    │    └─TrainingHook: 3-45           [256, 10]                 --
==========================================================================================
Total params: 134,301,514
Trainable params: 134,301,514
Non-trainable params: 0
Total mult-adds (T): 3.96
==========================================================================================
Input size (MB): 154.14
Forward/backward pass size (MB): 27762.12
Params size (MB): 537.21
Estimated Total Size (MB): 28453.47
…
