==========================================================================================
Layer (type:depth-idx)                   Output Shape              Param #
==========================================================================================
NetworkBuilder                           [128, 10]                 --
├─ModuleList: 1-1                        --                        --
│    └─CNN_block_VGG2: 2-1               [128, 64, 16, 16]         --
│    │    └─Conv2d: 3-1                  [128, 64, 32, 32]         1,792
│    │    └─Activation: 3-2              [128, 64, 32, 32]         --
│    │    └─Conv2d: 3-3                  [128, 64, 32, 32]         36,928
│    │    └─Activation: 3-4              [128, 64, 32, 32]         --
│    │    └─TrainingHook: 3-5            [128, 64, 32, 32]         (655,360)
│    │    └─MaxPool2d: 3-6               [128, 64, 16, 16]         --
│    └─FC_block_VGG: 2-2                 [128, 4096]               --
│    │    └─Linear: 3-7                  [128, 4096]               67,112,960
│    │    └─Activation: 3-8              [128, 4096]               --
│    │    └─TrainingHook: 3-9            [128, 4096]               (40,960)
│    └─FC_block_VGG: 2-3                 [128, 4096]               --
│    │    └─Linear: 3-10                 [128, 4096]               16,781,312
│    │    └─Activation: 3-11             [128, 4096]               --
│    │    └─TrainingHook: 3-12           [128, 4096]               (40,960)
│    └─FC_block_VGG: 2-4                 [128, 10]                 --
│    │    └─Linear: 3-13                 [128, 10]                 40,970
│    │    └─Activation: 3-14             [128, 10]                 --
│    │    └─TrainingHook: 3-15           [128, 10]                 --
==========================================================================================
Total params: 84,711,242
Trainable params: 83,973,962
Non-trainable params: 737,280
Total mult-adds (G): 64.14
==========================================================================================
Input size (MB): 1.57
Forward/backward pass size (MB): 218.11
Params size (MB): 338.84
Estimated Total Size (MB): 558.53
==========================================================================================
CONV2_64_3_1_1_FCV_4096_FCV_4096_FCV_10
CIFAR10
batch size 128
==========================================================================================
Layer (type:depth-idx)                   Output Shape              Param #
==========================================================================================
NetworkBuilder                           [128, 10]                 --
├─ModuleList: 1-1                        --                        --
│    └─CNN_block_VGG2: 2-1               [128, 64, 16, 16]         --
│    │    └─Conv2d: 3-1                  [128, 64, 32, 32]         1,792
│    │    └─Activation: 3-2              [128, 64, 32, 32]         --
│    │    └─Conv2d: 3-3                  [128, 64, 32, 32]         36,928
│    │    └─Activation: 3-4              [128, 64, 32, 32]         --
│    │    └─TrainingHook: 3-5            [128, 64, 32, 32]         (655,360)
│    │    └─MaxPool2d: 3-6               [128, 64, 16, 16]         --
│    └─FC_block_VGG: 2-2                 [128, 4096]               --
│    │    └─Linear: 3-7                  [128, 4096]               67,112,960
│    │    └─Activation: 3-8              [128, 4096]               --
│    │    └─TrainingHook: 3-9            [128, 4096]               (40,960)
│    └─FC_block_VGG: 2-3                 [128, 4096]               --
│    │    └─Linear: 3-10                 [128, 4096]               16,781,312
│    │    └─Activation: 3-11             [128, 4096]               --
│    │    └─TrainingHook: 3-12           [128, 4096]               (40,960)
│    └─FC_block_VGG: 2-4                 [128, 10]                 --
│    │    └─Linear: 3-13                 [128, 10]                 40,970
│    │    └─Activation: 3-14             [128, 10]                 --
│    │    └─TrainingHook: 3-15           [128, 10]                 --
==========================================================================================
Total params: 84,711,242
Trainable params: 83,973,962
Non-trainable params: 737,280
Total mult-adds (G): 64.14
==========================================================================================
Input size (MB): 1.57
Forward/backward pass size (MB): 218.11
Params size (MB): 338.84
Estimated Total Size (MB): 558.53
…
