==========================================================================================
Layer (type:depth-idx)                   Output Shape              Param #
==========================================================================================
NetworkBuilder                           [128, 10]                 --
├─ModuleList: 1-1                        --                        --
│    └─CNN_block_VGG2: 2-1               [128, 32, 16, 16]         --
│    │    └─Conv2d: 3-1                  [128, 32, 32, 32]         896
│    │    └─Activation: 3-2              [128, 32, 32, 32]         --
│    │    └─Conv2d: 3-3                  [128, 32, 32, 32]         9,248
│    │    └─Activation: 3-4              [128, 32, 32, 32]         --
│    │    └─TrainingHook: 3-5            [128, 32, 32, 32]         (327,680)
│    │    └─MaxPool2d: 3-6               [128, 32, 16, 16]         --
│    └─CNN_block_VGG2: 2-2               [128, 32, 8, 8]           --
│    │    └─Conv2d: 3-7                  [128, 32, 16, 16]         9,248
│    │    └─Activation: 3-8              [128, 32, 16, 16]         --
│    │    └─Conv2d: 3-9                  [128, 32, 16, 16]         9,248
│    │    └─Activation: 3-10             [128, 32, 16, 16]         --
│    │    └─TrainingHook: 3-11           [128, 32, 16, 16]         (81,920)
│    │    └─MaxPool2d: 3-12              [128, 32, 8, 8]           --
│    └─CNN_block_VGG3: 2-3               [128, 64, 4, 4]           --
│    │    └─Conv2d: 3-13                 [128, 64, 8, 8]           18,496
│    │    └─Activation: 3-14             [128, 64, 8, 8]           --
│    │    └─Conv2d: 3-15                 [128, 64, 8, 8]           36,928
│    │    └─Activation: 3-16             [128, 64, 8, 8]           --
│    │    └─Conv2d: 3-17                 [128, 64, 8, 8]           36,928
│    │    └─Activation: 3-18             [128, 64, 8, 8]           --
│    │    └─TrainingHook: 3-19           [128, 64, 8, 8]           (40,960)
│    │    └─MaxPool2d: 3-20              [128, 64, 4, 4]           --
│    └─CNN_block_VGG3: 2-4               [128, 64, 2, 2]           --
│    │    └─Conv2d: 3-21                 [128, 64, 4, 4]           36,928
│    │    └─Activation: 3-22             [128, 64, 4, 4]           --
│    │    └─Conv2d: 3-23                 [128, 64, 4, 4]           36,928
│    │    └─Activation: 3-24             [128, 64, 4, 4]           --
│    │    └─Conv2d: 3-25                 [128, 64, 4, 4]           36,928
│    │    └─Activation: 3-26             [128, 64, 4, 4]           --
│    │    └─TrainingHook: 3-27           [128, 64, 4, 4]           (10,240)
│    │    └─MaxPool2d: 3-28              [128, 64, 2, 2]           --
│    └─CNN_block_VGG3: 2-5               [128, 64, 1, 1]           --
│    │    └─Conv2d: 3-29                 [128, 64, 2, 2]           36,928
│    │    └─Activation: 3-30             [128, 64, 2, 2]           --
│    │    └─Conv2d: 3-31                 [128, 64, 2, 2]           36,928
│    │    └─Activation: 3-32             [128, 64, 2, 2]           --
│    │    └─Conv2d: 3-33                 [128, 64, 2, 2]           36,928
│    │    └─Activation: 3-34             [128, 64, 2, 2]           --
│    │    └─TrainingHook: 3-35           [128, 64, 2, 2]           (2,560)
│    │    └─MaxPool2d: 3-36              [128, 64, 1, 1]           --
│    └─FC_block_VGG: 2-6                 [128, 4096]               --
│    │    └─Linear: 3-37                 [128, 4096]               266,240
│    │    └─Activation: 3-38             [128, 4096]               --
│    │    └─TrainingHook: 3-39           [128, 4096]               (40,960)
│    └─FC_block_VGG: 2-7                 [128, 4096]               --
│    │    └─Linear: 3-40                 [128, 4096]               16,781,312
│    │    └─Activation: 3-41             [128, 4096]               --
│    │    └─TrainingHook: 3-42           [128, 4096]               (40,960)
│    └─FC_block_VGG: 2-8                 [128, 10]                 --
│    │    └─Linear: 3-43                 [128, 10]                 40,970
│    │    └─Activation: 3-44             [128, 10]                 --
│    │    └─TrainingHook: 3-45           [128, 10]                 --
==========================================================================================
Total params: 17,976,362
Trainable params: 17,431,082
Non-trainable params: 545,280
Total mult-adds (G): 50.23
==========================================================================================
Input size (MB): 1.57
Forward/backward pass size (MB): 164.64
Params size (MB): 71.91
Estimated Total Size (MB): 238.12
…
