==========================================================================================
Layer (type:depth-idx)                   Output Shape              Param #
==========================================================================================
NetworkBuilder                           [128, 10]                 --
├─ModuleList: 1-1                        --                        --
│    └─CNN_block: 2-1                    [128, 32, 16, 16]         --
│    │    └─Conv2d: 3-1                  [128, 32, 32, 32]         2,432
│    │    └─Activation: 3-2              [128, 32, 32, 32]         --
│    │    └─TrainingHook: 3-3            [128, 32, 32, 32]         (327,680)
│    │    └─MaxPool2d: 3-4               [128, 32, 16, 16]         --
│    └─FC_block: 2-2                     [128, 1000]               --
│    │    └─Linear: 3-5                  [128, 1000]               8,193,000
│    │    └─Activation: 3-6              [128, 1000]               --
│    │    └─TrainingHook: 3-7            [128, 1000]               (10,000)
│    └─FC_block: 2-3                     [128, 10]                 --
│    │    └─Linear: 3-8                  [128, 10]                 10,010
│    │    └─Activation: 3-9              [128, 10]                 --
│    │    └─TrainingHook: 3-10           [128, 10]                 --
==========================================================================================
Total params: 8,543,122
Trainable params: 8,205,442
Non-trainable params: 337,680
Total mult-adds (G): 3.99
==========================================================================================
Input size (MB): 1.57
Forward/backward pass size (MB): 69.17
Params size (MB): 34.17
Estimated Total Size (MB): 104.91
==========================================================================================
CONV_32_5_1_2_FC_1000_FC_10
CIFAR10
batch size 128
==========================================================================================
Layer (type:depth-idx)                   Output Shape              Param #
==========================================================================================
NetworkBuilder                           [128, 10]                 --
├─ModuleList: 1-1                        --                        --
│    └─CNN_block: 2-1                    [128, 32, 16, 16]         --
│    │    └─Conv2d: 3-1                  [128, 32, 32, 32]         2,432
│    │    └─Activation: 3-2              [128, 32, 32, 32]         --
│    │    └─TrainingHook: 3-3            [128, 32, 32, 32]         (327,680)
│    │    └─MaxPool2d: 3-4               [128, 32, 16, 16]         --
│    └─FC_block: 2-2                     [128, 1000]               --
│    │    └─Linear: 3-5                  [128, 1000]               8,193,000
│    │    └─Activation: 3-6              [128, 1000]               --
│    │    └─TrainingHook: 3-7            [128, 1000]               (10,000)
│    └─FC_block: 2-3                     [128, 10]                 --
│    │    └─Linear: 3-8                  [128, 10]                 10,010
│    │    └─Activation: 3-9              [128, 10]                 --
│    │    └─TrainingHook: 3-10           [128, 10]                 --
==========================================================================================
Total params: 8,543,122
Trainable params: 8,205,442
Non-trainable params: 337,680
Total mult-adds (G): 3.99
==========================================================================================
Input size (MB): 1.57
Forward/backward pass size (MB): 69.17
Params size (MB): 34.17
Estimated Total Size (MB): 104.91
…
