==========================================================================================
Layer (type:depth-idx)                   Output Shape              Param #
==========================================================================================
NetworkBuilder                           [64, 10]                  --
├─ModuleList: 1-1                        --                        --
│    └─CNN_block_VGG2: 2-1               [64, 64, 112, 112]        --
│    │    └─FA_wrapper: 3-1              [64, 64, 224, 224]        3,520
│    │    └─Activation: 3-2              [64, 64, 224, 224]        --
│    │    └─FA_wrapper: 3-3              [64, 64, 224, 224]        73,792
│    │    └─Activation: 3-4              [64, 64, 224, 224]        --
│    │    └─TrainingHook: 3-5            [64, 64, 224, 224]        --
│    │    └─MaxPool2d: 3-6               [64, 64, 112, 112]        --
│    └─CNN_block_VGG2: 2-2               [64, 128, 56, 56]         --
│    │    └─FA_wrapper: 3-7              [64, 128, 112, 112]       147,584
│    │    └─Activation: 3-8              [64, 128, 112, 112]       --
│    │    └─FA_wrapper: 3-9              [64, 128, 112, 112]       295,040
│    │    └─Activation: 3-10             [64, 128, 112, 112]       --
│    │    └─TrainingHook: 3-11           [64, 128, 112, 112]       --
│    │    └─MaxPool2d: 3-12              [64, 128, 56, 56]         --
│    └─CNN_block_VGG3: 2-3               [64, 256, 28, 28]         --
│    │    └─FA_wrapper: 3-13             [64, 256, 56, 56]         590,080
│    │    └─Activation: 3-14             [64, 256, 56, 56]         --
│    │    └─FA_wrapper: 3-15             [64, 256, 56, 56]         1,179,904
│    │    └─Activation: 3-16             [64, 256, 56, 56]         --
│    │    └─FA_wrapper: 3-17             [64, 256, 56, 56]         1,179,904
│    │    └─Activation: 3-18             [64, 256, 56, 56]         --
│    │    └─TrainingHook: 3-19           [64, 256, 56, 56]         --
│    │    └─MaxPool2d: 3-20              [64, 256, 28, 28]         --
│    └─CNN_block_VGG3: 2-4               [64, 512, 14, 14]         --
│    │    └─FA_wrapper: 3-21             [64, 512, 28, 28]         2,359,808
│    │    └─Activation: 3-22             [64, 512, 28, 28]         --
│    │    └─FA_wrapper: 3-23             [64, 512, 28, 28]         4,719,104
│    │    └─Activation: 3-24             [64, 512, 28, 28]         --
│    │    └─FA_wrapper: 3-25             [64, 512, 28, 28]         4,719,104
│    │    └─Activation: 3-26             [64, 512, 28, 28]         --
│    │    └─TrainingHook: 3-27           [64, 512, 28, 28]         --
│    │    └─MaxPool2d: 3-28              [64, 512, 14, 14]         --
│    └─CNN_block_VGG3: 2-5               [64, 512, 7, 7]           --
│    │    └─FA_wrapper: 3-29             [64, 512, 14, 14]         4,719,104
│    │    └─Activation: 3-30             [64, 512, 14, 14]         --
│    │    └─FA_wrapper: 3-31             [64, 512, 14, 14]         4,719,104
│    │    └─Activation: 3-32             [64, 512, 14, 14]         --
│    │    └─FA_wrapper: 3-33             [64, 512, 14, 14]         4,719,104
│    │    └─Activation: 3-34             [64, 512, 14, 14]         --
│    │    └─TrainingHook: 3-35           [64, 512, 14, 14]         --
│    │    └─MaxPool2d: 3-36              [64, 512, 7, 7]           --
│    └─FC_block_VGG: 2-6                 [64, 4096]                --
│    │    └─FA_wrapper: 3-37             [64, 4096]                205,524,992
│    │    └─Activation: 3-38             [64, 4096]                --
│    │    └─TrainingHook: 3-39           [64, 4096]                --
│    └─FC_block_VGG: 2-7                 [64, 4096]                --
│    │    └─FA_wrapper: 3-40             [64, 4096]                33,558,528
│    │    └─Activation: 3-41             [64, 4096]                --
│    │    └─TrainingHook: 3-42           [64, 4096]                --
│    └─FC_block_VGG: 2-8                 [64, 10]                  --
│    │    └─FA_wrapper: 3-43             [64, 10]                  81,930
│    │    └─Activation: 3-44             [64, 10]                  --
│    │    └─TrainingHook: 3-45           [64, 10]                  --
==========================================================================================
Total params: 268,590,602
Trainable params: 134,301,514
Non-trainable params: 134,289,088
Total mult-adds (G): 990.70
==========================================================================================
Input size (MB): 38.54
Forward/backward pass size (MB): 6940.53
Params size (MB): 537.21
Estimated Total Size (MB): 7516.27
…
