==========================================================================================
Layer (type:depth-idx)                   Output Shape              Param #
==========================================================================================
NetworkBuilder                           [128, 10]                 --
├─ModuleList: 1-1                        --                        --
│    └─CNN_block_VGG2: 2-1               [128, 64, 16, 16]         --
│    │    └─Conv2d: 3-1                  [128, 64, 32, 32]         1,792
│    │    └─Activation: 3-2              [128, 64, 32, 32]         --
│    │    └─Conv2d: 3-3                  [128, 64, 32, 32]         36,928
│    │    └─Activation: 3-4              [128, 64, 32, 32]         --
│    │    └─TrainingHook: 3-5            [128, 64, 32, 32]         (655,360)
│    │    └─MaxPool2d: 3-6               [128, 64, 16, 16]         --
│    └─CNN_block_VGG2: 2-2               [128, 128, 8, 8]          --
│    │    └─Conv2d: 3-7                  [128, 128, 16, 16]        73,856
│    │    └─Activation: 3-8              [128, 128, 16, 16]        --
│    │    └─Conv2d: 3-9                  [128, 128, 16, 16]        147,584
│    │    └─Activation: 3-10             [128, 128, 16, 16]        --
│    │    └─TrainingHook: 3-11           [128, 128, 16, 16]        (327,680)
│    │    └─MaxPool2d: 3-12              [128, 128, 8, 8]          --
│    └─CNN_block_VGG3: 2-3               [128, 256, 4, 4]          --
│    │    └─Conv2d: 3-13                 [128, 256, 8, 8]          295,168
│    │    └─Activation: 3-14             [128, 256, 8, 8]          --
│    │    └─Conv2d: 3-15                 [128, 256, 8, 8]          590,080
│    │    └─Activation: 3-16             [128, 256, 8, 8]          --
│    │    └─Conv2d: 3-17                 [128, 256, 8, 8]          590,080
│    │    └─Activation: 3-18             [128, 256, 8, 8]          --
│    │    └─TrainingHook: 3-19           [128, 256, 8, 8]          (163,840)
│    │    └─MaxPool2d: 3-20              [128, 256, 4, 4]          --
│    └─FC_block_VGG: 2-4                 [128, 4096]               --
│    │    └─Linear: 3-21                 [128, 4096]               16,781,312
│    │    └─Activation: 3-22             [128, 4096]               --
│    │    └─TrainingHook: 3-23           [128, 4096]               (40,960)
│    └─FC_block_VGG: 2-5                 [128, 4096]               --
│    │    └─Linear: 3-24                 [128, 4096]               16,781,312
│    │    └─Activation: 3-25             [128, 4096]               --
│    │    └─TrainingHook: 3-26           [128, 4096]               (40,960)
│    └─FC_block_VGG: 2-6                 [128, 10]                 --
│    │    └─Linear: 3-27                 [128, 10]                 40,970
│    │    └─Activation: 3-28             [128, 10]                 --
│    │    └─TrainingHook: 3-29           [128, 10]                 --
==========================================================================================
Total params: 36,567,882
Trainable params: 35,339,082
Non-trainable params: 1,228,800
Total mult-adds (G): 87.77
==========================================================================================
Input size (MB): 1.57
Forward/backward pass size (MB): 385.89
Params size (MB): 146.27
Estimated Total Size (MB): 533.73
…
