==========================================================================================
Layer (type:depth-idx)                   Output Shape              Param #
==========================================================================================
NetworkBuilder                           [8, 10]                   --
├─ModuleList: 1-1                        --                        --
│    └─CNN_block_VGG2: 2-1               [8, 64, 112, 112]         --
│    │    └─Conv2d: 3-1                  [8, 64, 224, 224]         1,792
│    │    └─Activation: 3-2              [8, 64, 224, 224]         --
│    │    └─Conv2d: 3-3                  [8, 64, 224, 224]         36,928
│    │    └─Activation: 3-4              [8, 64, 224, 224]         --
│    │    └─TrainingHook: 3-5            [8, 64, 224, 224]         (32,112,640)
│    │    └─MaxPool2d: 3-6               [8, 64, 112, 112]         --
│    └─CNN_block_VGG2: 2-2               [8, 128, 56, 56]          --
│    │    └─Conv2d: 3-7                  [8, 128, 112, 112]        73,856
│    │    └─Activation: 3-8              [8, 128, 112, 112]        --
│    │    └─Conv2d: 3-9                  [8, 128, 112, 112]        147,584
│    │    └─Activation: 3-10             [8, 128, 112, 112]        --
│    │    └─TrainingHook: 3-11           [8, 128, 112, 112]        (16,056,320)
│    │    └─MaxPool2d: 3-12              [8, 128, 56, 56]          --
│    └─CNN_block_VGG3: 2-3               [8, 256, 28, 28]          --
│    │    └─Conv2d: 3-13                 [8, 256, 56, 56]          295,168
│    │    └─Activation: 3-14             [8, 256, 56, 56]          --
│    │    └─Conv2d: 3-15                 [8, 256, 56, 56]          590,080
│    │    └─Activation: 3-16             [8, 256, 56, 56]          --
│    │    └─Conv2d: 3-17                 [8, 256, 56, 56]          590,080
│    │    └─Activation: 3-18             [8, 256, 56, 56]          --
│    │    └─TrainingHook: 3-19           [8, 256, 56, 56]          (8,028,160)
│    │    └─MaxPool2d: 3-20              [8, 256, 28, 28]          --
│    └─CNN_block_VGG3: 2-4               [8, 512, 14, 14]          --
│    │    └─Conv2d: 3-21                 [8, 512, 28, 28]          1,180,160
│    │    └─Activation: 3-22             [8, 512, 28, 28]          --
│    │    └─Conv2d: 3-23                 [8, 512, 28, 28]          2,359,808
│    │    └─Activation: 3-24             [8, 512, 28, 28]          --
│    │    └─Conv2d: 3-25                 [8, 512, 28, 28]          2,359,808
│    │    └─Activation: 3-26             [8, 512, 28, 28]          --
│    │    └─TrainingHook: 3-27           [8, 512, 28, 28]          (4,014,080)
│    │    └─MaxPool2d: 3-28              [8, 512, 14, 14]          --
│    └─CNN_block_VGG3: 2-5               [8, 512, 7, 7]            --
│    │    └─Conv2d: 3-29                 [8, 512, 14, 14]          2,359,808
│    │    └─Activation: 3-30             [8, 512, 14, 14]          --
│    │    └─Conv2d: 3-31                 [8, 512, 14, 14]          2,359,808
│    │    └─Activation: 3-32             [8, 512, 14, 14]          --
│    │    └─Conv2d: 3-33                 [8, 512, 14, 14]          2,359,808
│    │    └─Activation: 3-34             [8, 512, 14, 14]          --
│    │    └─TrainingHook: 3-35           [8, 512, 14, 14]          (1,003,520)
│    │    └─MaxPool2d: 3-36              [8, 512, 7, 7]            --
│    └─FC_block_VGG: 2-6                 [8, 4096]                 --
│    │    └─Linear: 3-37                 [8, 4096]                 102,764,544
│    │    └─Activation: 3-38             [8, 4096]                 --
│    │    └─TrainingHook: 3-39           [8, 4096]                 (40,960)
│    └─FC_block_VGG: 2-7                 [8, 4096]                 --
│    │    └─Linear: 3-40                 [8, 4096]                 16,781,312
│    │    └─Activation: 3-41             [8, 4096]                 --
│    │    └─TrainingHook: 3-42           [8, 4096]                 (40,960)
│    └─FC_block_VGG: 2-8                 [8, 10]                   --
│    │    └─Linear: 3-43                 [8, 10]                   40,970
│    │    └─Activation: 3-44             [8, 10]                   --
│    │    └─TrainingHook: 3-45           [8, 10]                   --
==========================================================================================
Total params: 195,598,154
Trainable params: 134,301,514
Non-trainable params: 61,296,640
Total mult-adds (G): 196.40
==========================================================================================
Input size (MB): 4.82
Forward/backward pass size (MB): 1259.86
Params size (MB): 782.39
Estimated Total Size (MB): 2047.07
…
