==========================================================================================
Layer (type:depth-idx)                   Output Shape              Param #
==========================================================================================
NetworkBuilder                           [128, 10]                 --
├─ModuleList: 1-1                        --                        --
│    └─CNN_block_VGG2: 2-1               [128, 64, 16, 16]         --
│    │    └─Conv2d: 3-1                  [128, 64, 32, 32]         1,792
│    │    └─Activation: 3-2              [128, 64, 32, 32]         --
│    │    └─Conv2d: 3-3                  [128, 64, 32, 32]         36,928
│    │    └─Activation: 3-4              [128, 64, 32, 32]         --
│    │    └─TrainingHook: 3-5            [128, 64, 32, 32]         (655,360)
│    │    └─MaxPool2d: 3-6               [128, 64, 16, 16]         --
│    └─CNN_block_VGG2: 2-2               [128, 128, 8, 8]          --
│    │    └─Conv2d: 3-7                  [128, 128, 16, 16]        73,856
│    │    └─Activation: 3-8              [128, 128, 16, 16]        --
│    │    └─Conv2d: 3-9                  [128, 128, 16, 16]        147,584
│    │    └─Activation: 3-10             [128, 128, 16, 16]        --
│    │    └─TrainingHook: 3-11           [128, 128, 16, 16]        (327,680)
│    │    └─MaxPool2d: 3-12              [128, 128, 8, 8]          --
│    └─FC_block_VGG: 2-3                 [128, 4096]               --
│    │    └─Linear: 3-13                 [128, 4096]               33,558,528
│    │    └─Activation: 3-14             [128, 4096]               --
│    │    └─TrainingHook: 3-15           [128, 4096]               (40,960)
│    └─FC_block_VGG: 2-4                 [128, 4096]               --
│    │    └─Linear: 3-16                 [128, 4096]               16,781,312
│    │    └─Activation: 3-17             [128, 4096]               --
│    │    └─TrainingHook: 3-18           [128, 4096]               (40,960)
│    └─FC_block_VGG: 2-5                 [128, 10]                 --
│    │    └─Linear: 3-19                 [128, 10]                 40,970
│    │    └─Activation: 3-20             [128, 10]                 --
│    │    └─TrainingHook: 3-21           [128, 10]                 --
==========================================================================================
Total params: 51,705,930
Trainable params: 50,640,970
Non-trainable params: 1,064,960
Total mult-adds (G): 72.47
==========================================================================================
Input size (MB): 1.57
Forward/backward pass size (MB): 318.78
Params size (MB): 206.82
Estimated Total Size (MB): 527.17
==========================================================================================
CONV2_64_3_1_1_CONV2_128_3_1_1_FCV_4096_FCV_4096_FCV_10
CIFAR10
batch size 128
==========================================================================================
Layer (type:depth-idx)                   Output Shape              Param #
==========================================================================================
NetworkBuilder                           [128, 10]                 --
├─ModuleList: 1-1                        --                        --
│    └─CNN_block_VGG2: 2-1               [128, 64, 16, 16]         --
│    │    └─Conv2d: 3-1                  [128, 64, 32, 32]         1,792
│    │    └─Activation: 3-2              [128, 64, 32, 32]         --
│    │    └─Conv2d: 3-3                  [128, 64, 32, 32]         36,928
│    │    └─Activation: 3-4              [128, 64, 32, 32]         --
│    │    └─TrainingHook: 3-5            [128, 64, 32, 32]         (655,360)
│    │    └─MaxPool2d: 3-6               [128, 64, 16, 16]         --
│    └─CNN_block_VGG2: 2-2               [128, 128, 8, 8]          --
│    │    └─Conv2d: 3-7                  [128, 128, 16, 16]        73,856
│    │    └─Activation: 3-8              [128, 128, 16, 16]        --
│    │    └─Conv2d: 3-9                  [128, 128, 16, 16]        147,584
│    │    └─Activation: 3-10             [128, 128, 16, 16]        --
│    │    └─TrainingHook: 3-11           [128, 128, 16, 16]        (327,680)
│    │    └─MaxPool2d: 3-12              [128, 128, 8, 8]          --
│    └─FC_block_VGG: 2-3                 [128, 4096]               --
│    │    └─Linear: 3-13                 [128, 4096]               33,558,528
│    │    └─Activation: 3-14             [128, 4096]               --
│    │    └─TrainingHook: 3-15           [128, 4096]               (40,960)
│    └─FC_block_VGG: 2-4                 [128, 4096]               --
│    │    └─Linear: 3-16                 [128, 4096]               16,781,312
│    │    └─Activation: 3-17             [128, 4096]               --
│    │    └─TrainingHook: 3-18           [128, 4096]               (40,960)
│    └─FC_block_VGG: 2-5                 [128, 10]                 --
│    │    └─Linear: 3-19                 [128, 10]                 40,970
│    │    └─Activation: 3-20             [128, 10]                 --
│    │    └─TrainingHook: 3-21           [128, 10]                 --
==========================================================================================
Total params: 51,705,930
Trainable params: 50,640,970
Non-trainable params: 1,064,960
Total mult-adds (G): 72.47
==========================================================================================
Input size (MB): 1.57
Forward/backward pass size (MB): 318.78
Params size (MB): 206.82
Estimated Total Size (MB): 527.17
…
