==========================================================================================
Layer (type:depth-idx)                   Output Shape              Param #
==========================================================================================
NetworkBuilder                           [128, 10]                 --
├─ModuleList: 1-1                        --                        --
│    └─CNN_block: 2-1                    [128, 32, 16, 16]         --
│    │    └─Conv2d: 3-1                  [128, 32, 32, 32]         2,432
│    │    └─Activation: 3-2              [128, 32, 32, 32]         --
│    │    └─TrainingHook: 3-3            [128, 32, 32, 32]         (327,680)
│    │    └─MaxPool2d: 3-4               [128, 32, 16, 16]         --
│    └─FC_block: 2-2                     [128, 4096]               --
│    │    └─Linear: 3-5                  [128, 4096]               33,558,528
│    │    └─Activation: 3-6              [128, 4096]               --
│    │    └─TrainingHook: 3-7            [128, 4096]               (40,960)
│    └─FC_block: 2-3                     [128, 10]                 --
│    │    └─Linear: 3-8                  [128, 10]                 40,970
│    │    └─Activation: 3-9              [128, 10]                 --
│    │    └─TrainingHook: 3-10           [128, 10]                 --
==========================================================================================
Total params: 33,970,570
Trainable params: 33,601,930
Non-trainable params: 368,640
Total mult-adds (G): 27.44
==========================================================================================
Input size (MB): 1.57
Forward/backward pass size (MB): 75.51
Params size (MB): 135.88
Estimated Total Size (MB): 212.96
==========================================================================================
CONV_32_5_1_2_FC_4096_FC_10
CIFAR10
batch size 128
==========================================================================================
Layer (type:depth-idx)                   Output Shape              Param #
==========================================================================================
NetworkBuilder                           [128, 10]                 --
├─ModuleList: 1-1                        --                        --
│    └─CNN_block: 2-1                    [128, 32, 16, 16]         --
│    │    └─Conv2d: 3-1                  [128, 32, 32, 32]         2,432
│    │    └─Activation: 3-2              [128, 32, 32, 32]         --
│    │    └─TrainingHook: 3-3            [128, 32, 32, 32]         (327,680)
│    │    └─MaxPool2d: 3-4               [128, 32, 16, 16]         --
│    └─FC_block: 2-2                     [128, 4096]               --
│    │    └─Linear: 3-5                  [128, 4096]               33,558,528
│    │    └─Activation: 3-6              [128, 4096]               --
│    │    └─TrainingHook: 3-7            [128, 4096]               (40,960)
│    └─FC_block: 2-3                     [128, 10]                 --
│    │    └─Linear: 3-8                  [128, 10]                 40,970
│    │    └─Activation: 3-9              [128, 10]                 --
│    │    └─TrainingHook: 3-10           [128, 10]                 --
==========================================================================================
Total params: 33,970,570
Trainable params: 33,601,930
Non-trainable params: 368,640
Total mult-adds (G): 27.44
==========================================================================================
Input size (MB): 1.57
Forward/backward pass size (MB): 75.51
Params size (MB): 135.88
Estimated Total Size (MB): 212.96
…
