==========================================================================================
Layer (type:depth-idx)                   Output Shape              Param #
==========================================================================================
NetworkBuilder                           [128, 10]                 --
├─ModuleList: 1-1                        --                        --
│    └─CNN_block_VGG2: 2-1               [128, 64, 16, 16]         --
│    │    └─Conv2d: 3-1                  [128, 64, 32, 32]         1,792
│    │    └─Activation: 3-2              [128, 64, 32, 32]         --
│    │    └─Conv2d: 3-3                  [128, 64, 32, 32]         36,928
│    │    └─Activation: 3-4              [128, 64, 32, 32]         --
│    │    └─TrainingHook: 3-5            [128, 64, 32, 32]         (655,360)
│    │    └─MaxPool2d: 3-6               [128, 64, 16, 16]         --
│    └─CNN_block_VGG2: 2-2               [128, 128, 8, 8]          --
│    │    └─Conv2d: 3-7                  [128, 128, 16, 16]        73,856
│    │    └─Activation: 3-8              [128, 128, 16, 16]        --
│    │    └─Conv2d: 3-9                  [128, 128, 16, 16]        147,584
│    │    └─Activation: 3-10             [128, 128, 16, 16]        --
│    │    └─TrainingHook: 3-11           [128, 128, 16, 16]        (327,680)
│    │    └─MaxPool2d: 3-12              [128, 128, 8, 8]          --
│    └─CNN_block_VGG3: 2-3               [128, 256, 4, 4]          --
│    │    └─Conv2d: 3-13                 [128, 256, 8, 8]          295,168
│    │    └─Activation: 3-14             [128, 256, 8, 8]          --
│    │    └─Conv2d: 3-15                 [128, 256, 8, 8]          590,080
│    │    └─Activation: 3-16             [128, 256, 8, 8]          --
│    │    └─Conv2d: 3-17                 [128, 256, 8, 8]          590,080
│    │    └─Activation: 3-18             [128, 256, 8, 8]          --
│    │    └─TrainingHook: 3-19           [128, 256, 8, 8]          (163,840)
│    │    └─MaxPool2d: 3-20              [128, 256, 4, 4]          --
│    └─CNN_block_VGG3: 2-4               [128, 512, 2, 2]          --
│    │    └─Conv2d: 3-21                 [128, 512, 4, 4]          1,180,160
│    │    └─Activation: 3-22             [128, 512, 4, 4]          --
│    │    └─Conv2d: 3-23                 [128, 512, 4, 4]          2,359,808
│    │    └─Activation: 3-24             [128, 512, 4, 4]          --
│    │    └─Conv2d: 3-25                 [128, 512, 4, 4]          2,359,808
│    │    └─Activation: 3-26             [128, 512, 4, 4]          --
│    │    └─TrainingHook: 3-27           [128, 512, 4, 4]          (81,920)
│    │    └─MaxPool2d: 3-28              [128, 512, 2, 2]          --
│    └─CNN_block_VGG3: 2-5               [128, 512, 1, 1]          --
│    │    └─Conv2d: 3-29                 [128, 512, 2, 2]          2,359,808
│    │    └─Activation: 3-30             [128, 512, 2, 2]          --
│    │    └─Conv2d: 3-31                 [128, 512, 2, 2]          2,359,808
│    │    └─Activation: 3-32             [128, 512, 2, 2]          --
│    │    └─Conv2d: 3-33                 [128, 512, 2, 2]          2,359,808
│    │    └─Activation: 3-34             [128, 512, 2, 2]          --
│    │    └─TrainingHook: 3-35           [128, 512, 2, 2]          (20,480)
│    │    └─MaxPool2d: 3-36              [128, 512, 1, 1]          --
│    └─FC_block_VGG: 2-6                 [128, 4096]               --
│    │    └─Linear: 3-37                 [128, 4096]               2,101,248
│    │    └─Activation: 3-38             [128, 4096]               --
│    │    └─TrainingHook: 3-39           [128, 4096]               (40,960)
│    └─FC_block_VGG: 2-7                 [128, 4096]               --
│    │    └─Linear: 3-40                 [128, 4096]               16,781,312
│    │    └─Activation: 3-41             [128, 4096]               --
│    │    └─TrainingHook: 3-42           [128, 4096]               (40,960)
│    └─FC_block_VGG: 2-8                 [128, 10]                 --
│    │    └─Linear: 3-43                 [128, 10]                 40,970
│    │    └─Activation: 3-44             [128, 10]                 --
│    │    └─TrainingHook: 3-45           [128, 10]                 --
==========================================================================================
Total params: 34,969,418
Trainable params: 33,638,218
Non-trainable params: 1,331,200
Total mult-adds (G): 108.31
==========================================================================================
Input size (MB): 1.57
Forward/backward pass size (MB): 427.83
Params size (MB): 139.88
Estimated Total Size (MB): 569.28
…
