==========================================================================================
Layer (type:depth-idx)                   Output Shape              Param #
==========================================================================================
NetworkBuilder                           [128, 10]                 --
├─ModuleList: 1-1                        --                        --
│    └─CNN_block_VGG2: 2-1               [128, 64, 112, 112]       --
│    │    └─Conv2d: 3-1                  [128, 64, 224, 224]       1,792
│    │    └─Activation: 3-2              [128, 64, 224, 224]       --
│    │    └─Conv2d: 3-3                  [128, 64, 224, 224]       36,928
│    │    └─Activation: 3-4              [128, 64, 224, 224]       --
│    │    └─TrainingHook: 3-5            [128, 64, 224, 224]       --
│    │    └─MaxPool2d: 3-6               [128, 64, 112, 112]       --
│    └─CNN_block_VGG2: 2-2               [128, 128, 56, 56]        --
│    │    └─Conv2d: 3-7                  [128, 128, 112, 112]      73,856
│    │    └─Activation: 3-8              [128, 128, 112, 112]      --
│    │    └─Conv2d: 3-9                  [128, 128, 112, 112]      147,584
│    │    └─Activation: 3-10             [128, 128, 112, 112]      --
│    │    └─TrainingHook: 3-11           [128, 128, 112, 112]      --
│    │    └─MaxPool2d: 3-12              [128, 128, 56, 56]        --
│    └─CNN_block_VGG3: 2-3               [128, 256, 28, 28]        --
│    │    └─Conv2d: 3-13                 [128, 256, 56, 56]        295,168
│    │    └─Activation: 3-14             [128, 256, 56, 56]        --
│    │    └─Conv2d: 3-15                 [128, 256, 56, 56]        590,080
│    │    └─Activation: 3-16             [128, 256, 56, 56]        --
│    │    └─Conv2d: 3-17                 [128, 256, 56, 56]        590,080
│    │    └─Activation: 3-18             [128, 256, 56, 56]        --
│    │    └─TrainingHook: 3-19           [128, 256, 56, 56]        --
│    │    └─MaxPool2d: 3-20              [128, 256, 28, 28]        --
│    └─CNN_block_VGG3: 2-4               [128, 512, 14, 14]        --
│    │    └─Conv2d: 3-21                 [128, 512, 28, 28]        1,180,160
│    │    └─Activation: 3-22             [128, 512, 28, 28]        --
│    │    └─Conv2d: 3-23                 [128, 512, 28, 28]        2,359,808
│    │    └─Activation: 3-24             [128, 512, 28, 28]        --
│    │    └─Conv2d: 3-25                 [128, 512, 28, 28]        2,359,808
│    │    └─Activation: 3-26             [128, 512, 28, 28]        --
│    │    └─TrainingHook: 3-27           [128, 512, 28, 28]        --
│    │    └─MaxPool2d: 3-28              [128, 512, 14, 14]        --
│    └─CNN_block_VGG3: 2-5               [128, 512, 7, 7]          --
│    │    └─Conv2d: 3-29                 [128, 512, 14, 14]        2,359,808
│    │    └─Activation: 3-30             [128, 512, 14, 14]        --
│    │    └─Conv2d: 3-31                 [128, 512, 14, 14]        2,359,808
│    │    └─Activation: 3-32             [128, 512, 14, 14]        --
│    │    └─Conv2d: 3-33                 [128, 512, 14, 14]        2,359,808
│    │    └─Activation: 3-34             [128, 512, 14, 14]        --
│    │    └─TrainingHook: 3-35           [128, 512, 14, 14]        --
│    │    └─MaxPool2d: 3-36              [128, 512, 7, 7]          --
│    └─FC_block_VGG: 2-6                 [128, 4096]               --
│    │    └─Linear: 3-37                 [128, 4096]               102,764,544
│    │    └─Activation: 3-38             [128, 4096]               --
│    │    └─TrainingHook: 3-39           [128, 4096]               --
│    └─FC_block_VGG: 2-7                 [128, 4096]               --
│    │    └─Linear: 3-40                 [128, 4096]               16,781,312
│    │    └─Activation: 3-41             [128, 4096]               --
│    │    └─TrainingHook: 3-42           [128, 4096]               --
│    └─FC_block_VGG: 2-8                 [128, 10]                 --
│    │    └─Linear: 3-43                 [128, 10]                 40,970
│    │    └─Activation: 3-44             [128, 10]                 --
│    │    └─TrainingHook: 3-45           [128, 10]                 --
==========================================================================================
Total params: 134,301,514
Trainable params: 134,301,514
Non-trainable params: 0
Total mult-adds (T): 1.98
==========================================================================================
Input size (MB): 77.07
Forward/backward pass size (MB): 13881.06
Params size (MB): 537.21
Estimated Total Size (MB): 14495.34
…
